56-姜巍-大连/week10/CIFAR-10/cifar_net.pth (torch, 250951 bytes, 10 tensors)

conv1.weight f4 [6, 3, 5, 5]
00000000: ff95 15bb 26da 04be d6f2 84be 8a05 39bd
00000010: 5c7a 273c fc46 36be 4ed9 a8be 8896 9ebe
00000020: e73b 51be a5a9 1abe d3d0 e2be d45f f1be
00000030: 8df5 94be f975 26be a9ce 95be 80a0 39be
00000040: 275d 90be fbfc 42be 86dc dbbc 017f 163d
00000050: 036a 39be e3b2 9bbd f454 a3bd ac27 37bd
00000060: ac64 343c 6fdb a1bd 4400 0f3d c15b c83d
00000070: 1181 1b3e 20d3 843d 032c d53d 3150 053e
00000080: ee68 a43d 0c2f 3e3e 46db 88bd b799 f53b
00000090: 57e4 f13d 48b2 793d a60e 313e 181c 7abd
000000a0: 956d 7b3c 52de 0f3e 6037 b83d 4065 003e
000000b0: d902 4cbe 9797 97bd e68c cbbb 8f1c d0bd
000000c0: b1e6 6b39 2304 70be 6d6d 5bbd ffbc e83d
000000d0: 75bc ac3e 24ee e13d 0772 d4bd e7ca 8a3d
000000e0: f731 c43e ac1e e33e b9fa 933e 5967 e43d
000000f0: 5876 313e d6a7 003f f80f e43e dce7 743e
00000100: dc9d 8b3d a4d9 4b3e 32be f23e 0554 ad3e
00000110: bff6 813d b656 c6bd d9dd 28be 0dfc 0c3e
00000120: 63f8 1f3e 4af6 d0bc 0433 c2be e9e1 cd3e
00000130: e7a9 4dbe 8f61 e6be 5c63 61be e978 803d
00000140: 6be3 adbe 8b05 2cbf f013 29be 64ad d03e
00000150: f789 683e c420 e7be df7c 2cbe 7708 b43e
00000160: 8151 bf3e 7ce8 6dbd b905 81be 1cca 703e
00000170: 80b1 a13e 5bfe 923c 58fd a7bd e869 6f3e
00000180: 69df 833e 7d7d 873e 5bea 9bbd 1d21 22bd
00000190: 754d dd3e ee5b 92be 8621 03bf 344f d4bd
000001a0: 1844 803e 729e 1ebe f2bb 3bbf 3ffd 2fbe
000001b0: c03b ee3e 1cff 6c3e 3297 d7be fc3e 55be
000001c0: a83e 083f 80d3 833e 58c4 4abd ad6a 93be
000001d0: c8fd 4d3e ad58 823e 1cb0 02bc 2c4b 14be
000001e0: 77d4 4c3d cae2 d93d 03a9 a13d 82ed 9cbd
000001f0: c82c 01bd e765 013f ef94 84bd 1918 fcbe
00000200: 631c b23a 84ee c23d 50a3 5ebe 1c0d 21bf
00000210: f253 5bbd 5fc7 b73e 5ea6 793e 1247 a3be
00000220: 391f 62bd 4bbd ca3e e2fc ae3e 0d57 bc39
00000230: f566 73be c867 083e 66d8 9a3e 2e42 50bd
00000240: 910d d8bd 8944 8d3c 7105 283e 6def 2d3e
00000250: bc96 18be d31c a13a 4bf5 2ebe ecdf 0cbf
00000260: 6f9d b5be 5876 fbbe ee7a a9be ff75 c93d
00000270: c53a d8be 9371 04bd c79c c33d 8c05 083e
00000280: 48b5 3fbe 5dd8 c03e a4ea ad3e 84a8 68bd
00000290: 7ca1 ecbd 8f5d 84bd 5869 bdbd 8b0a 4cbe
000002a0: 9649 1cbd 1764 00bd cf5e e43e c016 0bbe
000002b0: 39ee b6be 1c28 873e d47b f03d 001e 5b3e
000002c0: 5592 ca3c 1c38 833d 1044 14be 428d b73d
000002d0: 7fcd c43e 7ce8 55bc a181 b83e 57fc e53e
000002e0: 83ff 983e b2f3 37bd f7b8 0d3f 7af9 053f
000002f0: 9d15 9b3d 413e 283e e417 293d f587 823e
00000300: d4a3 373e 6c8d 123e a6b8 183e fd71 dd3e
00000310: be58 ac3d 1814 14be 4cd4 4b3e c40b f93d
00000320: 7fd1 c7bc c617 2fbe 3382 83bd 07bd 81be
00000330: 3433 443b 37af 3b3e f396 96be 6a4b ed3d
00000340: 8fbf 3a3e b2ae 8c3e b28c e3bd 5f4d b33e
00000350: fa61 d93d 886e 4ebe efe4 5abe 66e4 a9be
00000360: 3810 f1bd 7880 31be d009 a3bd f5b8 8abd
00000370: 0f1c 423e 84c3 9dbe df65 8bbe 7a78 a3bd
00000380: a0d3 25be 3f27 04be e8d4 31be f6cc 0b3e
00000390: 8d2c ea3e f5ad e63d 1001 2fbe 9229 1bbe
000003a0: 552f 51be 0926 963c 503c 9f3e d154 c0bd
000003b0: f2d4 f93e dfa3 8fbe 12bb 33bf 7fc2 2e3f
000003c0: 3034 89bd 132e 263f c4ba 92be dbab 6bbf
000003d0: 813d f93e c96c 25be f8a9 b83e 3667 35be
000003e0: bdac 31bf 9d51 cd3d 6fa2 03bd 417b 52bd
000003f0: 6ce8 e7bc 5747 42bd 982d 63be aa1c d73d
-0.0022825 -0.12973842 -0.2596652 -0.045171298 0.010222044 -0.17800516 -0.3297829 -0.3097422
-0.20433007 -0.15103777 -0.44299945 -0.47143424 -0.2909359 -0.1625594 -0.29259232 -0.18127632
-0.2819607 -0.19041817 -0.026838552 0.036742214 -0.18106847 -0.07602479 -0.07975188 -0.04471557
0.01101033 -0.07903182 0.034912363 0.09783126 0.15185954 0.064855814 0.10408785 0.13018872
0.08027826 0.18572634 -0.06682448 0.007495131 0.118111305 0.060961038 0.17290744 -0.06106195
0.015345951 0.14049652 0.08994937 0.12538624 -0.19922961 -0.0740196 -0.0062118648 -0.10161697
0.00022497286 -0.23439078 -0.053571153 0.11364173 0.3373753 0.1103175 -0.103733115 0.06776982
0.3831937 0.44359338 0.28902224 0.111525245 0.17330301 0.502561 0.44543433 0.23916572
0.06817219 0.19907242 0.47410733 0.33853164 0.06345891 -0.096845075 -0.16490878 0.13768025
0.15622096 -0.025508065 -0.37929547 0.40211418 -0.20084344 -0.44996306 -0.22010559 0.06273062
-0.3396257 -0.6719596 -0.16511512 0.40757287 0.2270888 -0.45142186 -0.1684451 0.35162708
0.3736687 -0.058083043 -0.2519968 0.23514599 0.31580734 0.017943552 -0.08202618 0.23380244
0.25756386 0.26462927 -0.07613059 -0.03958236 0.43223158 -0.28585762 -0.5122303 -0.10366669
0.2505195 -0.1549013 -0.73333657 -0.1718645 0.4652996 0.23144192 -0.4210754 -0.20824808
0.53220606 0.257473 -0.049503654 -0.28792325 0.20116341 0.2545828 -0.007976558 -0.14481801
0.05000731 0.1063896 0.078935646 -0.076624885 -0.031536847 0.50546116 -0.06473719 -0.49237135
0.0013588782 0.095181495 -0.21741986 -0.6291063 -0.053546853 0.35894296 0.2437987 -0.3189016
-0.055205557 0.39597544 0.3417731 0.00035923012 -0.23769744 0.1332084 0.30243224 -0.050844364
-0.105494626 0.017244594 0.16408326 0.16985865 -0.1490125 0.0012291915 -0.1708576 -0.5502918
-0.35471675 -0.49113727 -0.331016 0.09836959 -0.42232338 -0.032334875 0.09551387 0.13283366
-0.18721497 0.37665072 0.3396808 -0.056801334 -0.11554238 -0.064631574 -0.09248608 -0.19925897
-0.038156115 -0.031345453 0.44603583 -0.13582897 -0.35728624 0.2639779 0.11742368 0.21398163
0.02472798 0.064071864 -0.14479089 0.0896249 0.3843803 -0.013055917 0.360364 0.44919083
0.2988244 -0.04491014 0.5536036 0.52333796 0.07572482 0.16429998 0.04128255 0.25494352
0.17933589 0.1431176 0.14914188 0.4325103 0.08415364 -0.1446079 0.19905204 0.12160447
-0.024391888 -0.17098913 -0.06421318 -0.2533953 0.0029937746 0.18328558 -0.2941204 0.1158665
0.18237136 0.27477032 -0.1111082 0.35019967 0.10614391 -0.20159352 -0.21376394 -0.33182067
-0.117706716 -0.17334163 -0.07960856 -0.06773559 0.18956016 -0.3081323 -0.2722616 -0.079819635
-0.1619401 -0.12905596 -0.17366374 0.13652405 0.45737115 0.112636484 -0.17090249 -0.15152577
-0.20428212 0.018328683 0.31100702 -0.093911774 0.48795277 -0.2805471 -0.7020732 0.6826553
-0.06699407 0.64914054 -0.28658116 -0.92059106 0.48679736 -0.1615478 0.36067176 -0.17715153
-0.694042 0.10025332 -0.03213733 -0.051387075 -0.02830907 -0.047431316 -0.22185361 0.10503514

conv1.bias f4 [6]
00000000: ab21 f93e 1371 b1be e706 8a3e c775 8cbe
00000010: ea10 173c 4409 33bf
0.486585 -0.3465658 0.2695839 -0.27433607 0.009220341 -0.69936013

conv2.weight f4 [16, 6, 5, 5]
00000000: 77a0 0abd 11f7 e53d 523f ab3d b88a 6c3d
00000010: c8f3 983c ab72 823d e410 863d 2a51 2e3e
00000020: 8b29 583d 70c5 babb 783b 22bc 2f65 d9bd
00000030: 7c6f 893c d859 84bc 21c1 8b3c 2d38 16be
00000040: d832 4fbe 6832 bbbb 1c09 8ebd c9c7 91bd
00000050: 60fb a7be dfaf 9ebe 49c0 85be 25cd 79be
00000060: fa0f 97be a858 16bb 807e bf3d 02ea 853e
00000070: b8d4 4c3d 6acb 303e 1cdb cebc b1b1 e63c
00000080: d514 02be 47fa cd3d 37a2 f2bd fa0a eb3c
00000090: 15d2 b13d e535 0cbe efae 483c 5b4b 93be
000000a0: 6abb 7abd 7670 85bd 1db6 85be 4b2b 5fbd
000000b0: 86fe 1fbd fd05 b33d ed79 b7bc 0983 44bd
000000c0: 7d2d 413d a72c 93be 1d9f a43b 2c05 d63d
000000d0: d085 d83b ce00 1dbe 67f0 09be ba08 e53d
000000e0: a1ff 983d 3281 0eba d6d3 14bd 54f1 a23d
000000f0: fe46 263e c36d 2e3e 57fc 353e ee4b f73d
00000100: 01c0 fcbd 5224 5c3e 26bb a73e 9bb6 a33e
00000110: 3ef8 8d3d 7169 2d3e 4d0f 8a3e d928 413e
00000120: 1445 2a3e afdb 413e 28e6 efbc f7f4 5d3d
00000130: 5f21 3d3e 90a1 213e e002 603e 530d cdbd
00000140: 4d6e 003e f124 33bd 3bbb 033e 4e70 1dbe
00000150: 24f8 083d ed6e 47bc fa4a d5bd 1f62 0e3e
00000160: c834 2dbd 9f81 553c ff7e c7bc 0319 423d
00000170: 26d3 713d 7b33 f8bd 3f3a 553d 442c 02be
00000180: 0300 af3c 1942 09be 4440 a8bc 5685 953d
00000190: 4653 0bbd 275c 47bd cfe6 55bd 7022 3bbd
000001a0: 0d2b 09be 4177 03be d190 0dbe 37e2 5bbe
000001b0: 33ee 2abe 8338 59be fc36 2bbe 69f0 0bbe
000001c0: 844d 67be 8b17 69be 363f c3bd ae94 48bd
000001d0: c45c 2ebe d65c 4bbd af14 b4bd f73a 85bc
000001e0: f57a 5abe 049b 3cbe 4275 b6bd 6144 a1bd
000001f0: 46d3 88bd 88cf 95bd 6267 b13d 5956 19bd
00000200: 0359 78bc 04d8 f1bd db6e f7bd 1159 fdbd
00000210: 077f c6bd 28b2 6cbd 9894 61bd 7479 14be
00000220: 110e bebd aa9d e7bd 2b52 04be 41d3 a7bd
00000230: 02a8 b9bb 00a6 f33b 9109 6f3c c89e eebd
00000240: b987 253e 5347 7dbe e6f6 74be e9b2 06be
00000250: 9d36 27bd ab0e 77bd 14d2 55be ef93 34be
00000260: 636f b4bd cf24 933d e973 8d3d f60d 27bc
00000270: 2cce 1c3e 6a4d 4b3e c501 3d3c 37d4 183d
00000280: a64c 82bb f25d 5b3e 9a8c 4e3d f481 05bd
00000290: 0602 bcbd c9e9 2d3d 8016 97bd 573c dcbd
000002a0: 4481 cebd a464 b63c 89f6 aebd 5597 80bd
000002b0: fbe1 593d 64dd 1c3e 1a08 913d 6b70 833c
000002c0: f66e 7cbc 0891 063e c1cf 01be 4b76 e1be
000002d0: 8f72 043e b2fb a83e 52f1 c73d 5627 9cbe
000002e0: d8ea 2b3d f2eb 9f3d f49f 183e c289 9cbe
000002f0: 6a5a 9f3d d039 3d3e 42f2 2ebe 0dda 91be
00000300: ff0c 543e eae7 e93e 7c22 823e 331f 4cbe
00000310: 37ce 63bd af52 283e 158a a33d 9f64 c13e
00000320: 9c27 743e bd8a c13d 88c5 7e3e 7d97 493e
00000330: 053d 90be 8cf2 ae3d ecc5 c03d 038c b43e
00000340: 9c48 2abd b606 b7be 09a6 6f3e 3fd7 8c3e
00000350: 1704 4abd 866d b2be 66f0 80be e22a 923e
00000360: 8c2f c6bd 4cd0 82be 9d09 ccbd 1588 88be
00000370: fe59 7b3c 067a 19be e82d 28bd 9fe8 c03c
00000380: e0e5 2abe 967d 003e 52f1 97bd 0ea7 44be
00000390: 9d3f 4ebd ec13 3d3e 3b9b 3bbe b645 b4be
000003a0: bba0 d63d 4327 363e 6df0 bfbd e0e4 a1be
000003b0: bbca 993e 1945 863e 639f 42be c433 e83d
000003c0: aa01 a73c 6843 073e ec94 54be 5460 7ebe
000003d0: 45a2 273e 3619 1ebe d39c a2be a8fe c1be
000003e0: 21fd 27be 2724 edbd 9cd7 243d ce15 5f3e
000003f0: 69c1 1c3e 9750 babd 4daa edbd 4e29 0fbd
-0.033844437 0.11228765 0.08361687 0.05774948 0.018670931 0.063695274 0.065461904 0.17023149
0.052773993 -0.005699806 -0.009901874 -0.10615002 0.016776793 -0.016156122 0.017059864 -0.14669867
-0.20234239 -0.005712796 -0.06935331 -0.07118184 -0.3280897 -0.30993554 -0.26123264 -0.24394663
-0.29504377 -0.0022941027 0.093503 0.26155096 0.050007552 0.17265096 -0.025250964 0.028160902
-0.1270326 0.10057502 -0.11847346 0.028691757 0.08682648 -0.13692434 0.012248739 -0.2876843
-0.06121389 -0.06515591 -0.26115504 -0.054484647 -0.03906109 0.087413765 -0.022397006 -0.047976527
0.04716252 -0.28745005 0.0050238506 0.10450205 0.0066077486 -0.15332338 -0.13470612 0.11183305
0.07470632 -0.0005436122 -0.036334835 0.07956186 0.16238019 0.17034058 0.17772041 0.12075029
-0.12341309 0.2149823 0.3275997 0.31975254 0.06932114 0.16934754 0.269648 0.18863238
0.16627914 0.18931459 -0.029284552 0.054188695 0.18469761 0.15784287 0.21876097 -0.10012307
0.12542076 -0.043736402 0.12864392 -0.15374872 0.03343977 -0.012172443 -0.10414691 0.13904618
-0.042286664 0.013031392 -0.024352549 0.047387134 0.059039257 -0.12119194 0.0520575 -0.12712198
0.02136231 -0.1340412 -0.020538457 0.073008224 -0.034014963 -0.048671868 -0.05222207 -0.04568714
-0.13395329 -0.1283846 -0.13824774 -0.21473013 -0.16692428 -0.21212964 -0.16720194 -0.13665928
-0.22588164 -0.22762887 -0.09533541 -0.048969917 -0.17027575 -0.049649082 -0.087930076 -0.016263468
-0.21335967 -0.18418509 -0.08909084 -0.0787437 -0.06680922 -0.07314974 0.08662297 -0.037435863
-0.015157941 -0.1180878 -0.12081691 -0.12370504 -0.09692197 -0.05778709 -0.05507335 -0.14499456
-0.09280027 -0.11309369 -0.1292197 -0.0819459 -0.00566578 0.00743556 0.014589683 -0.11651379
0.16165055 -0.2473424 -0.2392231 -0.13154186 -0.040823568 -0.060316723 -0.2088092 -0.17634557
-0.08810308 0.07184755 0.06906874 -0.0101962 0.15313023 0.1985375 0.011536066 0.03731176
-0.0039764224 0.21422556 0.050427057 -0.032594636 -0.091800734 0.042459283 -0.073773384 -0.107536964
-0.10083249 0.022264786 -0.085431166 -0.06278864 0.053194027 0.15318829 0.070816234 0.016044816
-0.0154073145 0.13141263 -0.12676908 -0.44035563 0.12934326 0.33004528 0.09762825 -0.3049876
0.04197201 0.07808675 0.14904767 -0.3057385 0.07780917 0.18479085 -0.17084602 -0.28486672
0.20708083 0.4568475 0.25416934 -0.19933777 -0.055616584 0.16437791 0.079853214 0.3777208
0.23843235 0.0945029 0.2488004 0.19686694 -0.28171554 0.08542356 0.094127506 0.3526307
-0.041573152 -0.35747308 0.23403181 0.2750797 -0.049320307 -0.34849185 -0.2518341 0.28548342
-0.096770376 -0.25549543 -0.09962771 -0.26666322 0.01534128 -0.14987954 -0.041059405 0.023548422
-0.16689253 0.12547907 -0.07419075 -0.19204351 -0.050353635 0.18464631 -0.18320934 -0.35209435
0.10479876 0.17788415 -0.093720295 -0.3161993 0.30037484 0.26224592 -0.19006114 0.113379985
0.020386536 0.13209307 -0.20759934 -0.24841434 0.16370495 -0.15439305 -0.31760272 -0.378896
-0.16405155 -0.11579161 0.040244684 0.21785662 0.15308155 -0.090974025 -0.11604748 -0.0349515

conv2.bias f4 [16]
00000000: 57cb 533f 3a37 dabe dec7 17bf 572b 31bf
00000010: 02db 773e 0002 34bd 8c4e 6bbf 731d f03e
00000020: 5059 b63f 7371 2abf 9e7e 1d3f a953 3b3e
00000030: 50ed 1bbc f859 64bd d1e9 29bf 69e7 043f
0.82732147 -0.4262026 -0.5928935 -0.69206756 0.24204639 -0.04394722 -0.9191673 0.46897468
1.4246006 -0.6657936 0.6152133 0.18293633 -0.009517029 -0.055749863 -0.663724 0.51915604

fc1.weight f4 [120, 400]
00000000: a33c 3a3d e3a0 94bd a4a3 82bd 6ae1 673b
00000010: b7d0 c93c cc14 3c3d c711 7e3d 382e 2a3d
00000020: 755c ba3d 9167 953d 9fb8 0ebd 519d 21bc
00000030: 1dbe 543d 4472 9c3d b203 8a3d e303 0e3c
00000040: ed8b 40bd 3cd5 383d 06ff 57bc 6a4b 8fbb
00000050: 015f 95bc 4e59 20bd ff87 29bd ced2 3fbd
00000060: 10f7 3b3b f05a f33d 4b25 853d 411e 383c
00000070: 4497 87bd 1fb2 253d fc09 dabc 6eb7 afba
00000080: e850 8fbc 9641 c5bc 6524 fb3c b6d6 d53c
00000090: 2021 aa3c 014d 46bd bd62 71bd 4607 ffbb
000000a0: 0ca8 503c 741f a23d 37ad c93c 9713 b4bb
000000b0: 30cc a63b ff74 5fbd a483 b8bc 2cbd 8fbd
000000c0: 8f1e 3cbd 189a 9dbd dc73 e2bc 4ef1 3c3c
000000d0: 1cc3 363d eebd 743d 6ae9 0b3c eebe 6abd
000000e0: effb dbbc a258 723d 35fa 16bc 7794 b93b
000000f0: 0783 413d 0900 4ebc 2519 e23b 5f49 babc
00000100: f0ea 3cbd 0225 eabc 1c7b 11bb 99e2 473d
00000110: faf3 4a3d 04a4 ad3c 004b b5b9 a149 9a3c
00000120: 2bea 373d 553f 623d a25b 28bc e833 c3bb
00000130: a9ef 78bb d42e 20bc 90b0 673c 6e1d 9d3c
00000140: 4ddb b03c dd36 48bd e308 71bb 8aae 23bd
00000150: 02d5 23bd a810 b23a 8b26 b7bc 0ee6 bd3d
00000160: 7dae 173d ae25 d43c 6fb1 5d3d 9bb7 a43d
00000170: 6cc4 573b b459 3ebc 94ee c83c 505f ffbb
00000180: cf0e 29bd 0460 8d3d 942f f6bc 24be 68bd
00000190: fd9f 0dbb b5cd 08bd 25ac 583c 72bf 553c
000001a0: 3931 423d e504 6ebc 43b5 1abd da6e 523b
000001b0: c51e 853b 4421 96bb 6a55 0cbd 2b86 06bc
000001c0: fbe9 993d e8fc 1d3d 37aa b9bc c606 3dbc
000001d0: 83cb 4fbd a455 e63c 77f0 a43c 8059 7ebb
000001e0: 2750 c53c 55ff f4bb 1a4e b83c d1d2 343d
000001f0: b26e 323d 95e3 913c 7c1d 173d 6c33 9c3c
00000200: b18f d73d f0d4 873d 9b66 a63b 3123 943d
00000210: eda4 923b 061d 4fbc 2849 bfbb 3b95 bb3b
00000220: d62e ddbc b1f9 6bbd 2547 aebc 7575 70bc
00000230: a312 cc3b 085b 4bbd eac1 cdbb 80b1 d7bb
00000240: 16b7 89bc 4bc9 103d 5012 4cbd 66b7 edbc
00000250: 4539 0dbc c878 6abd bef9 063d ac12 5fbd
00000260: 7007 69bd d1f0 763d 2e3c 093d d19f cb3b
00000270: 7b97 4ebd 80f6 5bbd fb7a 1b3b ce90 76bd
00000280: 5593 0d3b 0bf0 75bc fe99 1cbb 98c2 c0bb
00000290: 9030 04bd dc54 e8bd 3ecf a2bc 38d9 5ebc
000002a0: 15f2 2b3c 4887 8fbd 6586 b0bd 3ca8 e93b
000002b0: 4501 0ebd e9be c93c 5faf 5cbc e748 18bd
000002c0: acef 43bd 998b 44bd 053e b43b e7d9 8cbd
000002d0: 2784 ce3b 869b 24bd 890c 063d 405e 11bc
000002e0: 01de 62bc 68e1 abbd 7443 e23c 7a13 d7ba
000002f0: 20d5 84bc 8bfc b5bc 87a7 16bd 8a76 5cbd
00000300: 36ed 093c 5d08 60bd 4f96 55bd c136 2abc
00000310: e3e7 fa3c 5e8f d1bc 4808 1ebd 9d32 46bd
00000320: a6b5 a6bd 3469 ef3c 50cc eebb 2f49 34bd
00000330: 0a96 98bd 5720 98bc 55a1 323d 1589 3d3d
00000340: d7ee 13bd 61ff 94bd 23fd 02bc 2c5d 103d
00000350: d310 86bc a982 da3c 3d0d 713d 7cd4 5dba
00000360: 6b4d f93d 80e3 183d 2317 ccbc 4329 4aba
00000370: 075f 863d 936a e1bb 2b46 263c 4e6d 52b9
00000380: 2d19 4b3d 07d3 6f3d fa9d 703d 4cc7 b5ba
00000390: ce61 a13d 357a 56bd 8dc2 b83d cdf3 3f3d
000003a0: e34a 213d 1d5a 1b3c 05fd 9dbc 36da 9a3d
000003b0: 55f4 fe3c 1cd1 a83d a5c8 593d 2e9d 99bd
000003c0: 25fe 6bbd 666b 0b3c ad9e 5abc c9a9 793d
000003d0: 4bd4 6dbd 79b3 9c3c d9b3 43bc 5481 58bd
000003e0: ef5c ddba 4e3a 943c 73ea 4e3c 240e 14bd
000003f0: 8db1 44bd 50e5 41ba de03 59bc e78b b4bd
0.045467984 -0.07257249 -0.06378868 0.003538216 0.024635656 0.04591827 0.062028673 0.041547984
0.09099666 0.07295144 -0.034844037 -0.009864167 0.05193912 0.07638982 0.06738986 0.008667919
-0.047008444 0.04512523 -0.013183361 -0.0043730037 -0.018233778 -0.039147668 -0.04138946 -0.0468319
0.0028681196 0.11882579 0.06501254 0.011237682 -0.066206485 0.040453073 -0.026616089 -0.0013406107
-0.017494634 -0.024079125 0.030657003 0.026103359 0.020767748 -0.04841328 -0.058932055 -0.0077828495
0.012735378 0.079161555 0.024618728 -0.0054954994 0.005090259 -0.054554936 -0.022523709 -0.070185035
-0.04592758 -0.07695407 -0.027643137 0.011532141 0.044619665 0.059751444 0.008539537 -0.05731099
-0.02685353 0.059166558 -0.009214927 0.0056634503 0.047244098 -0.012573251 0.00689997 -0.022740064
-0.04612249 -0.0285821 -0.0022198623 0.048800085 0.04954908 0.021196373 -0.0003457889 0.018833937
0.044901054 0.05523618 -0.010275753 -0.0059571154 -0.0037984645 -0.00977679 0.014141217 0.019179072
0.021588946 -0.048880447 -0.0036778979 -0.039961375 -0.039998062 0.0013585286 -0.022357246 0.09272395
0.03703164 0.025896873 0.054124292 0.080428325 0.0032923473 -0.011618067 0.024527825 -0.0077933446
-0.04127389 0.06903079 -0.030051984 -0.056821957 -0.0021610253 -0.033399303 0.013224636 0.013046132
0.047410224 -0.014527534 -0.03777052 0.003210953 0.004062506 -0.0045816023 -0.034261145 -0.008210699
0.07515331 0.03857127 -0.022664173 -0.011537259 -0.050731193 0.028117009 0.020134194 -0.003881067
0.024086071 -0.007476727 0.02249818 0.044146363 0.0435626 0.017808715 0.036893353 0.019067489
0.10525454 0.066324115 0.0050781495 0.07233275 0.004475227 -0.012641197 -0.0058375783 0.005724577
-0.026999872 -0.05761117 -0.021274159 -0.014676441 0.0062278076 -0.04964736 -0.00627922 -0.006582439
-0.016810935 0.035348218 -0.04982215 -0.029018115 -0.008619611 -0.057244092 0.032953016 -0.054461166
-0.05689186 0.060288254 0.033504657 0.00621412 -0.05043743 -0.053701878 0.0023724425 -0.06019669
0.002160271 -0.015010844 -0.0023895497 -0.0058825724 -0.032272875 -0.11344311 -0.019874211 -0.013601594
0.010494729 -0.07008225 -0.08619384 0.007130651 -0.03466918 0.024627166 -0.013469546 -0.0371789
-0.04783599 -0.047984693 0.0055005574 -0.06877499 0.006302375 -0.04018738 0.0327268 -0.008872569
-0.013846875 -0.08392602 0.027620055 -0.0016409003 -0.016214907 -0.022215148 -0.03678086 -0.053823985
0.008418372 -0.054695476 -0.0521453 -0.010389031 0.03062815 -0.025581058 -0.038582116 -0.048388112
-0.081401154 0.02922497 -0.0072875395 -0.044015106 -0.07450493 -0.018570108 0.04361089 0.04627331
-0.036116447 -0.07275272 -0.007994923 0.035245106 -0.016365444 0.026673632 0.058850516 -0.00084621436
0.121729694 0.037326336 -0.024913376 -0.0007711837 0.06561094 -0.0068791597 0.010148565 -0.0002006788
0.049584556 0.05855086 0.05874441 -0.0013868599 0.07879983 -0.05236264 0.090214826 0.046863366
0.03937806 0.009481934 -0.019285688 0.07561152 0.031122366 0.082430094 0.053169865 -0.07500683
-0.057615418 0.0085094925 -0.013343495 0.060952935 -0.058063786 0.019128548 -0.0119447345 -0.052857712
-0.0016888658 0.018094208 0.012629139 -0.036146298 -0.048020888 -0.0007396536 -0.013245551 -0.08815747

fc1.bias f4 [120]
00000000: 0d64 babd 904f a9bd becd e93d 5aec 7a3e
00000010: 9a47 d439 5565 2a3d e8e0 1e3e 4012 bfbc
00000020: c30a d43d c60c 613c 760a efbc 94ed 3a3e
00000030: 82fb 293d b8e3 613d 51fd 7abd 69af 04be
00000040: bdfb 24bc 63a9 15be 066f 203e c627 e9bc
00000050: 7f99 52bd 2239 9ebd 7600 40ba 8343 343e
00000060: 5c62 dabc f84a 743d f0c8 edbd ef66 1bbe
00000070: ad5d 133e 108a de3d a7b1 8dbe a30b b93d
00000080: a03b 8ebd c738 013e 9c85 9cbc 4910 a83d
00000090: 5446 583c e32c 653d e975 af3e c32e 8b3d
000000a0: e73d 9abd f942 fd3b 57ab 26bc 58f7 033e
000000b0: 2c39 3e3d b517 393e 909e 193e 90e2 51bc
000000c0: 9237 763d a449 3bbe d83e 303e c467 74bc
000000d0: ba25 6abd 290c dd3d 3cd6 343e 3cbc b6bc
000000e0: abcf 773d 0dee b63d 1227 d7bd 04d9 01be
000000f0: 206f 77be efde 8e3c 6485 11be 5f4c 6a3e
00000100: f8c3 4abe f8cd 0abc 1c6a 973d cb1d b93d
00000110: ce5c 663e 31f5 aa3d 71a2 3f3e 468e 9d3e
00000120: 71a2 383e eb4c 4bbe 9192 90bd 6b07 913e
00000130: c939 9b3e 9753 343e 4580 d4bc 8c50 6e3d
00000140: ec78 da3d bc42 2fbd c3f8 533b 52d6 dfbb
00000150: 1a50 bc3d 68af 073d 265e 2a3e 9230 393b
00000160: 54aa 563e 9263 a7bd be04 23bd c2f4 953c
00000170: 26f0 dfbc 3635 3bbd d2d6 50bb 509f f23d
00000180: 4cd2 183e 530c 163b fe16 713e 4c60 9b3d
00000190: fe90 3e3e 99ae ed3c ecb1 893d 697d d33d
000001a0: 6173 e8bb 9a8d 303e df19 3ebc 627c 823d
000001b0: 6ae4 203e 0c5a 2b3e f672 983d 8600 863b
000001c0: f72e 543e 29cf 1b3d 2357 29bd 4b89 813c
000001d0: 13bb b53c fbbd 89bc fdb4 32be aaaa aebd
-0.091011144 -0.082671285 0.11416195 0.24504223 0.00040489138 0.041600544 0.15515482 -0.023324132
0.10353615 0.013735956 -0.029179793 0.18254691 0.041499622 0.05514881 -0.061276738 -0.12957539
-0.010069785 -0.14615397 0.15667352 -0.028461348 -0.051415917 -0.07725741 -0.00073242874 0.17603879
-0.02665823 0.05964181 -0.116105914 -0.15175985 0.14391203 0.10866177 -0.276746 0.09035423
-0.06944966 0.12619315 -0.019106679 0.08206231 0.013200361 0.05595101 0.34269646 0.067960285
-0.07531338 0.007728931 -0.010172687 0.12887323 0.046441242 0.1807545 0.15001893 -0.012810364
0.06011159 -0.1828981 0.17211473 -0.014917318 -0.057164885 0.10793335 0.17659849 -0.022306554
0.060500782 0.08932123 -0.10505499 -0.12680441 -0.24163485 0.017440287 -0.1421104 0.22880696
-0.19801319 -0.008471958 0.07393286 0.09038886 0.2249634 0.08347548 0.1871431 0.3077261
0.18030716 -0.1985356 -0.07059205 0.28325972 0.30317524 0.17610012 -0.02594007 0.058182284
0.10667595 -0.042788252 0.0032344318 -0.006830969 0.09194966 0.033126265 0.16637477 0.002825771
0.20963413 -0.081732884 -0.039799444 0.018305186 -0.027336191 -0.045705043 -0.0031866324 0.11846793
0.14923972 0.002289553 0.23543927 0.075867265 0.18609998 0.029013919 0.06723389 0.103266545
-0.0070938324 0.17241517 -0.011602848 0.063713804 0.15712133 0.16733569 0.07443802 0.004089418
0.2072104 0.03803936 -0.041342866 0.015812537 0.02218393 -0.016814223 -0.17451854 -0.08528645

fc2.weight f4 [84, 120]
00000000: 4c98 fdbc cea8 113d 0f94 abbc 751f aa3d
00000010: dc6d 1eb9 8879 fabd 48be ef3d b169 62bd
00000020: d1fc 01bc b2fc fe3d 9ceb c23d 4c27 11bd
00000030: bf97 aebd 5991 303e 27d7 153e 1d59 86bd
00000040: 2a23 97bd c59c f4bd bc78 8cbd 720b bcbd
00000050: ee4f 63bd 69f7 ea3d 0007 dd3d d302 07be
00000060: 4894 8dbc 39fb a63d 365a f9bd 1dd0 53be
00000070: 4c38 a3bd 8fa1 e33d de4a dcbc 4606 3fbd
00000080: a3e8 b63d c76c 393d cdd8 103e bc4f 973d
00000090: 0200 72bd dffa dc3c e778 833c 6501 f3bc
000000a0: ba37 16be 4a4e d1bd d924 543b 2365 02be
000000b0: 3258 373d cc16 de3b e106 5e3d b919 e93c
000000c0: 96a3 ff3d da42 afbb cb5b d8bb b898 b83d
000000d0: 6c61 adbd f5d5 fb3b a05c 9d3d 6950 32be
000000e0: 837c 19bd 8810 393e db88 eebd 72c9 29bc
000000f0: 0053 1a3b 6cd5 7dbd b6ef 423d cc99 d03c
00000100: 5924 0cbe 6236 0dbd 84c3 98bd 06dd 3f3d
00000110: 3c96 db3d 4b96 ac3d 48a7 123d aa3b 803d
00000120: 1050 3fbe 489c 9fbd 46ad 2fbd 0e7e 863d
00000130: 5b08 233e 7367 3fbe 1b8d e6bd c294 0f3e
00000140: 7025 dfbd 5ecc 80bd bab4 793d a989 b33d
00000150: 6fcf e5bd 76b3 59bd b14a c23c e5f3 3e3d
00000160: 2dee bd3c a778 b1bd d8c1 0bbd 174d 90bd
00000170: 6160 01be e12d 41bd 3283 843a 6abd dc3c
00000180: 9f95 15bc 47e1 5b3b b408 cebd ec1f 3e3d
00000190: cbc1 26bd 7ef1 80bd a20e e73d 6bf2 8f3c
000001a0: 06ad 6d3c 9f3a d73c fea4 42bd 5633 e8bd
000001b0: ca6b 5fbd 8f79 82bd 80b8 77be dc5c b2bc
000001c0: cdb8 6bbd 4cef 323c 6f13 9e3c 2471 e8bb
000001d0: f5b3 42bd b487 c33d cc99 dcbd cac6 d83d
000001e0: 6fcb 98bd 8965 de3d fd92 6abe a961 4ebd
000001f0: 46fe 803c c708 0ebe e9b4 d9bc 565c 8ebb
00000200: 463d 17bd b8d7 22be 3cca 123e 15ca cbbd
00000210: 38fc d2bd 6042 74bd 3928 013d 82ae 2eba
00000220: 52db 88bd 92f8 b1bd e0e5 523d b62e b6bd
00000230: a73a c0ba fc9d 50bd 6464 d8bb 4216 0bbe
00000240: a152 cc3d bdbd 49bd d0cc 563c f967 f0bd
00000250: 196b 22bd 34e2 e03d 15dc be3c 73d3 06be
00000260: 6ff5 2bbd 159a d53c 1155 a13d 47d4 d6bd
00000270: 486d aabd 05de 81bc fd46 d53c 895a 5b3d
00000280: 31ae 8fbd 7204 c8bd 3ba4 473b 6594 e3bc
00000290: b9bc 42bc dabf 0c3c bf89 3b3e 7b21 30bd
000002a0: 50aa 36bd f844 3dbe cf38 643e d312 6abd
000002b0: 3f87 193d b92c b7bd cfd5 17be a258 debd
000002c0: 2033 aa3d 36ca a0bc 8138 d9bc f013 96bd
000002d0: 59ba 133e 1ef0 883d f86a 09bc dc96 3ebe
000002e0: 7ae3 313e 3301 f93c db5a d43d 394c a2bd
000002f0: b0d2 46bc d063 22be b929 65bd 7366 58bc
00000300: 87d5 31bd b221 13be 0647 703d b581 e13d
00000310: a3d5 cbbc 8a81 7e3d c756 0f3d 04e8 9bbd
00000320: b896 1f3e 4739 353d 46ee 113e 368d afbc
00000330: 4ef1 1e3e 2b08 5ebe 2b21 49be d64d 9cbc
00000340: b29c 10be a7c5 88bd bf36 a33d fc37 6b3c
00000350: 8c97 8bbd 57e7 d43d 9f2d 933d cbae 73bd
00000360: 1860 fdbd be1d 813d 7b52 c3bd 0527 503d
00000370: 9d4a 90bd 464e bebd 8ee0 ec3c cf46 b83d
00000380: 3a16 1e3c 9163 ca3d 5c54 35be 4968 a5bd
00000390: 7750 003c e36f d73c 5ae6 f83c 7b78 59bd
000003a0: 8290 f23b 643c 503b 90a2 f6bb bf09 9a39
000003b0: 2628 b93d 34d6 833e f5a8 74bd 7d37 1d3e
000003c0: ac70 74bd 8924 8bbd 7575 1e3e 83ab 70bd
000003d0: 47ea 263d ec1b 063e 1965 fdbd 056c 0c3d
000003e0: 317a 46bd a10d 4b38 1485 f0ba 3be3 633d
000003f0: 662f c53d e78f f53b 90be 923c 1085 31be
-0.03095641 0.035561375 -0.020944623 0.08306781 -0.0001510898 -0.122302115 0.11706215 -0.055276576
-0.007933811 0.124505416 0.09517595 -0.035437867 -0.08525037 0.17242946 0.14632855 -0.06559966
-0.07379754 -0.11943964 -0.06858966 -0.091818705 -0.05549615 0.11472971 0.10792351 -0.13184671
-0.01728262 0.08153386 -0.121754095 -0.20684858 -0.07969722 0.11114799 -0.026891168 -0.046636842
0.08931091 0.045269754 0.14145203 0.07388255 -0.05908204 0.026975093 0.016048862 -0.02966375
-0.14669695 -0.102200106 0.0032370596 -0.12733893 0.044761844 0.00677762 0.05420578 0.028454648
0.124823734 -0.0053485455 -0.0066027394 0.09013504 -0.084658474 0.007685418 0.076836824 -0.17413487
-0.03747226 0.18072712 -0.11647197 -0.01036297 0.0023548007 -0.061971113 0.047591887 0.025463961
-0.1368574 -0.03447569 -0.07459167 0.046841644 0.10722014 0.084271036 0.035804063 0.0626138
-0.18682885 -0.0779348 -0.042889856 0.06567012 0.15921156 -0.18691806 -0.112573825 0.1402159
-0.108958125 -0.0628898 0.06096337 0.08766491 -0.112212054 -0.053149663 0.023717256 0.046619315
0.02318486 -0.08665591 -0.03412041 -0.07045954 -0.12634422 -0.047162894 0.00101099 0.026945788
-0.009129911 0.0033551024 -0.10060254 0.04641716 -0.04071216 -0.06296061 0.11282088 0.017571649
0.014506584 0.02627307 -0.04752063 -0.113379166 -0.054546155 -0.06370842 -0.24191475 -0.021772794
-0.057549287 0.010921311 0.019296376 -0.0070935655 -0.0475349 0.09547368 -0.10771522 0.10584791
-0.07460677 0.1085921 -0.22907634 -0.050386105 0.015746247 -0.13870536 -0.026575522 -0.0043445034
-0.03692367 -0.15902603 0.14334959 -0.099506535 -0.10302013 -0.059633613 0.0315325 -0.0006663577
-0.06682457 -0.08689989 0.051488757 -0.08895628 -0.0014665917 -0.050931916 -0.0066037644 -0.1358271
0.09976698 -0.049253214 0.013110355 -0.11738581 -0.039652918 0.10980645 0.023298303 -0.13166599
-0.04198211 0.026074449 0.07877553 -0.104897074 -0.08321625 -0.015852937 0.026034826 0.053553138
-0.07015646 -0.09766473 0.003046288 -0.027780721 -0.011885815 0.008590663 0.18314265 -0.04300068
-0.044596016 -0.1848334 0.22287296 -0.05714686 0.037482496 -0.08944077 -0.14827655 -0.10856749
0.083105326 -0.019627672 -0.026516201 -0.073280215 0.14426555 0.06686424 -0.00838732 -0.18612236
0.17371932 0.03039608 0.10368892 -0.079246946 -0.012135193 -0.15858388 -0.055947993 -0.01320802
-0.043416526 -0.14368322 0.058661483 0.11011068 -0.024882143 0.062135257 0.034994867 -0.07612613
0.15584838 0.044244077 0.1425105 -0.02142964 0.15521738 -0.21682803 -0.19641559 -0.019080084
-0.14122275 -0.06678324 0.07969426 0.014356609 -0.06816015 0.10395687 0.07186436 -0.059492867
-0.12371844 0.06304501 -0.09537216 0.050818462 -0.07045481 -0.09292273 0.02891567 0.08997881
0.009648854 0.09882272 -0.17707962 -0.080765314 0.007831684 0.026298469 0.030383278 -0.053093415
0.0074024806 0.0031774277 -0.007526703 0.0002938043 0.09040861 0.25749362 -0.059731442 0.15353198
-0.059677765 -0.06794078 0.15474494 -0.058757316 0.040750768 0.13096589 -0.123727985 0.034282703
-0.048456375 4.8411664e-05 -0.0018350207 0.055636626 0.09628181 0.007493961 0.017913133 -0.17335916

fc2.bias f4 [84]
00000000: 8401 a43d 7067 73bd 8973 ce3e 5d35 d63e
00000010: 44d6 e53c 3d2e 303e c0b7 b23e 2af2 0d3f
00000020: 8217 c53d 40f3 043f af31 613e dc94 adba
00000030: 891b b73e 34bd 843e 1954 503e dbd3 84be
00000040: 59e1 713d 6983 e23d d62a d2bd acd6 2dbd
00000050: 152a 43bd 7585 13bd 379c b73e 39fe e53a
00000060: 2d28 973e 45c0 ad3e 4913 9c3e d98b bdbd
00000070: f225 1a3f dea5 fdbc 3083 02bd 235f 793e
00000080: 1ad1 e83e f58a ff3d 1d2a a73c ce84 0d3b
00000090: c2e5 a83c 4ea2 6e3e 7920 d43c 4ecd 3e3d
000000a0: 99f2 da3e b30a 1c3e 1330 aa3e d53d 58bd
000000b0: 0faa 28bd c812 2b3f a5a2 05be ce99 0cbd
000000c0: 44f2 8b3d b448 4e3e 554a ae3c 279b dabd
000000d0: 6471 dabc c433 893e 0fa2 5abc 33db 863b
000000e0: 32e5 d63d 3f2a 663c 72e3 ab3e ff13 8d3e
000000f0: c217 193e 1f1f 8a3c bcf8 853e 9cfb 983e
00000100: 78b1 d63c 5459 823e d6e3 4a3d 7d7d 1c3e
00000110: b22e 033e 0582 e43e 9215 7f3d bc6d 81bd
00000120: 35ae 80bd 4a19 d73c 08e0 7a3e 9ab0 1d3e
00000130: d62d 0a3e c97b 953e 1bf8 d0bc 3137 823e
00000140: 44cf 483e 8f3c 233e 40f0 123d 9c32 e73d
0.080081016 -0.059424818 0.4032252 0.41837588 0.028056271 0.17205139 0.34905815 0.5544764
0.096236244 0.5193367 0.21991609 -0.0013243216 0.35763195 0.259256 0.2034458 -0.25942883
0.0590528 0.11060221 -0.102620766 -0.042441055 -0.047647554 -0.036015946 0.3586137 0.0017547078
0.2952284 0.33935753 0.30483463 -0.092551894 0.6021415 -0.03096288 -0.03186339 0.24352698
0.45472032 0.12477676 0.020405823 0.002159405 0.02061737 0.23304102 0.02589439 0.046582513
0.42763212 0.15238456 0.33239803 -0.052793343 -0.041177806 0.6682553 -0.13050325 -0.034326367
0.06833318 0.20144922 0.021275679 -0.10674124 -0.026665397 0.26797307 -0.013344302 0.004115486
0.10492934 0.014048158 0.33571965 0.27554318 0.14950469 0.016860543 0.26166332 0.29879463
0.02620767 0.25458777 0.049533688 0.15282245 0.12810782 0.44630447 0.06227643 -0.06319758
-0.06283227 0.026257176 0.24499524 0.153994 0.13494048 0.29196003 -0.02550893 0.25432733
0.19610316 0.1594107 0.03587365 0.1128895

fc3.weight f4 [10, 84]
00000000: 1284 493e 3e96 293e 66e8 28be b805 b3be
00000010: 532d 453e 7165 5fbe 6309 b43d 04da 863e
00000020: 1c4e 123e 72ad 2abd a03b b23d 6501 27be
00000030: 2187 ca3d 0b8d 84be 10b7 aebc 2e5f 893a
00000040: 1916 033e 5108 f93d 17d4 373e 8652 503c
00000050: 17b6 32be 51a6 83be b8cc a5bd 366d 543d
00000060: 273f 8e3e f386 21be 5f09 09bd 57f0 f03c
00000070: cea1 cfbd 3669 e7bd ed27 103e 7e78 533e
00000080: 8259 02be e6c3 07bd ac6d 8a3c 31a3 d43c
00000090: 35aa 0dbe 9ea6 66be dc87 053e b447 a53c
000000a0: 21ab b23d f602 c73d 21c7 6abe 55f0 2a3e
000000b0: 7faa 063e 7261 23be f5bb 7d3e b84c 18bd
000000c0: 6df2 c93d c9aa 9b3d f02b 4b3e 3243 1fbd
000000d0: 5b2d 683c 023f 6d3e 51d8 3a3e 452f 523a
000000e0: f39c bc3d f018 ccbd 0a03 9d3d 19d5 c93d
000000f0: b4f3 173e c528 0cbe 4d9e 463e c3e8 00be
00000100: 7299 063e 3970 12be aa30 20bb c4ab e63d
00000110: 8956 2bbe c78b 40bd ed37 913c 7819 6fbe
00000120: 1bc7 87bd bb9e 313c a7aa f13d 1ef8 4ebc
00000130: 712d 00bd f27e 84bd 4b24 933d bc7f 90be
00000140: 56f0 093e 3557 37be 10cd 5ebd 286f ffbd
00000150: 5b05 a23c c692 27bd 59ba 66be f64f 44be
00000160: 76e9 9e3e 3dfe 473e d4ef 2ebd 1552 a0be
00000170: 75c5 e0bd ef54 9dbd 5040 7abd de0a 993d
00000180: 216f f7bd f393 8d3e b182 0ebe 66a4 593e
00000190: c4d3 21bd ec21 8fbd fb5d 943d ce14 19bd
000001a0: 7360 edbd 5faf 30be 67a4 a2bd f5ff 163e
000001b0: 2634 89bd cedb 8abe 9f02 133e 0eb7 0bbd
000001c0: d44e 51be 70f3 86bd 2e7d 963e 7247 6a3e
000001d0: 58dc f6bd 3fde 393e 8457 99bc 38ea 81bb
000001e0: 482a c9bd 07e7 3bbd 14a0 403e 41e6 52bc
000001f0: 6327 2b3e ff8e 9cbe ef61 17be dc78 0d3e
00000200: 36b3 37be 20fe 7cbe 9b72 003e 83d9 013e
00000210: 33c7 64be c073 473d 3e81 523e 20fa c8bd
00000220: f682 8cbd cedc b73e 914a a63d 88a9 bdbc
00000230: ae92 e2bc 7671 6f3e 9c82 10be f2a2 1ebe
00000240: 3b39 6f3e 318f 3c3e c1bc 80be bbd7 45be
00000250: d734 25be cfe7 3abe ff29 9b3d d1ae d93d
00000260: d2ec 9fbd 9620 cfbd 0e32 49be 3949 813e
00000270: 5c2d 0fbd 8a96 02bd 7799 513e 2f90 763d
00000280: 8c07 50bd 8876 6ebe 99bf f0bd ccda b13d
00000290: 941d b8be 7ea3 d63b 0a00 893c c0c2 58bd
000002a0: 5f8e 82bd 851f 6fbd 1fd3 d8bc e8f6 173e
000002b0: d31b ec3c dce8 1dbe 6917 c0bd b8e2 b13e
000002c0: 0b85 b6bd 7fe6 eebd ea14 0d3e e344 8fbd
000002d0: e747 c2b8 725f 78bd 6b52 dabc cc88 ad3c
000002e0: 4650 e1bc b4f9 9a3c 031b eebd bcfa 42bd
000002f0: 4075 313d 1fd0 143e 870c 293b f14b 1a3d
00000300: c34b 0fbc c748 a13e 33f4 25bc d649 543c
00000310: 4b45 d93b bedf afbd b6c2 453d 1f6c 303e
00000320: d2f4 843e 82ca 84bd 6ccf 233b 1c3c 6abd
00000330: b393 b5bd 2761 173e 946f 4bbe e185 abbd
00000340: a464 84be 4e04 d63c 2682 803e 55dc 68be
00000350: dd37 a7bd 183f 033e 908a 113d 7219 5cbb
00000360: da1a 013e 4709 853d a0ee 4dbd 311b a0bd
00000370: d699 d6bd d6b7 aabd 7c51 003e f27f e03b
00000380: 29a4 16bd 22cc 6e3d 9474 053e 54dd 493d
00000390: 8f5b 6abe db1b c43d b050 cf3d 62a2 bbbd
000003a0: 0fc1 9f3e 51f7 3fbd 5242 973d a7c8 6e3d
000003b0: 02f3 2cbd 0017 613e 402a 73bc 9d5e 51bc
000003c0: 2f6e babd 2d6c d23c c544 9bbd 7962 00be
000003d0: 65fa 853d b7a6 ab3c 2b5c 103e 9839 9f3d
000003e0: c71a 5f3e d173 a7bd 18fe d53d 4ccf a4bd
000003f0: f669 943d 7bd2 b2bd a09b 8a3e 5223 873e
0.19679287 0.16561219 -0.16494903 -0.349653 0.19255571 -0.2181604 0.08790853 0.26338208
0.14287609 -0.041669317 0.08702779 -0.16309126 0.09889055 -0.25888857 -0.021327525 0.0010480636
0.12801398 0.12159789 0.17952 0.012714988 -0.17452274 -0.25712827 -0.08095688 0.051861964
0.27782556 -0.15774135 -0.033456203 0.029411478 -0.10138284 -0.11299364 0.1407773 0.20651433
-0.12729457 -0.033145808 0.016897999 0.025956722 -0.1383446 -0.22524497 0.13040107 0.020175792
0.087240465 0.09717362 -0.22927524 0.16693242 0.13150977 -0.15955141 0.24778731 -0.03718254
0.09860692 0.07600934 0.1984098 -0.03888244 0.01417097 0.23168567 0.1824658 0.0008017908
0.09209623 -0.09965694 0.07666595 0.09855098 0.14839059 -0.13687427 0.19396324 -0.12588792
0.13144472 -0.14300622 -0.0024443069 0.112632304 -0.1673223 -0.047008302 0.017726863 -0.2334956
-0.06629773 0.010841067 0.118001275 -0.012632398 -0.031293336 -0.064695254 0.07184657 -0.28222454
0.13470587 -0.1790436 -0.05439478 -0.12472373 0.019777944 -0.04091146 -0.22532023 -0.19171128
0.31037492 0.19530578 -0.042709187 -0.31312624 -0.10975162 -0.076822154 -0.06109649 0.07472776
-0.12081743 0.2765194 -0.13917042 0.2125412 -0.039508596 -0.06988892 0.07244488 -0.037373357
-0.11590662 -0.17254399 -0.079415135 0.14746077 -0.066994 -0.27120823 0.14356469 -0.03411012
-0.20440227 -0.06589401 0.2939238 0.22878817 -0.12053746 0.18151186 -0.018718489 -0.0039646886
-0.09822518 -0.04587462 0.18811065 -0.01287228 0.16714244 -0.30577847 -0.14783452 0.13815635
-0.17939457 -0.24706316 0.12543719 0.1268063 -0.22341613 0.048694372 0.20557114 -0.098133326
-0.06860916 0.35910648 0.08119691 -0.023152128 -0.027657833 0.23383126 -0.14112324 -0.15491846
0.23361675 0.18413998 -0.25144008 -0.19320576 -0.16133438 -0.1825249 0.075763695 0.10629047
-0.07808842 -0.10113637 -0.19648 0.25251177 -0.034955367 -0.031881846 0.20468698 0.060196098
-0.050788447 -0.23287404 -0.11755294 0.0868431 -0.35960066 0.0065502515 0.016723651 -0.052920103
-0.063748114 -0.05837967 -0.026467858 0.14840281 0.028821861 -0.1542086 -0.09379465 0.34743285
-0.08912095 -0.116650574 0.1377751 -0.06995561 -9.264034e-05 -0.0606379 -0.026650628 0.021183394
-0.027504098 0.018917896 -0.11626246 -0.0476024 0.04332471 0.14532517 0.002579482 0.03767008
-0.00874609 0.31500837 -0.010129022 0.012957057 0.006630575 -0.08587597 0.048281394 0.17228745
0.25968033 -0.06483938 0.002499546 -0.05718623 -0.08866062 0.14783154 -0.19866782 -0.08375145
-0.25858033 0.0261251 0.25099295 -0.227403 -0.08164952 0.12817037 0.035532534 -0.0033584503
0.126079 0.0649591 -0.0502764 -0.07817686 -0.104785606 -0.08335845 0.12531084 0.00685119
-0.03677765 0.058300145 0.13032752 0.04928334 -0.2288649 0.095756255 0.10122812 -0.091618314
0.3120198 -0.04686672 0.073856965 0.058296826 -0.042223938 0.2198143 -0.014841616 -0.012778905
-0.09103047 0.025686348 -0.07581476 -0.12537564 0.065418996 0.02095352 0.1409766 0.07774657
0.21787558 -0.08176387 0.10448855 -0.08047351 0.07246773 -0.08731552 0.27071857 0.26394135

fc3.bias f4 [10]
00000000: ab77 acbe c251 24bf 0a3f 38bd f1e4 1c3f
00000010: 724b 163f 20ab 2a3c 508e 2d3e 711a c0be
00000020: a164 803e 29a7 2fbe
-0.3368505 -0.6418725 -0.044981994 0.61286837 0.5870887 0.010416776 0.16948819 -0.37520173
0.25076774 -0.1715361
